BFnet_3lay.pth (torch, 156112 bytes, 7 tensors)

module.dncnn.0.weight f4 [64, 1, 3, 3]
0	0x3e2c65ed	0.16835757
1	0x3e7510c1	0.23932172
2	0x3f3016ff	0.6878509
3	0xbefa2ff2	-0.48864704
4	0xbea82584	-0.32841122
5	0x3eb252b7	0.3482873
6	0xbeb8a476	-0.36062974
7	0xbe823c99	-0.25436857
8	0xbbdb6e05	-0.006696465
9	0x3eef611a	0.4675377
10	0x3ed88c4d	0.4229454
11	0x3e352f22	0.17693761
12	0x3df583ae	0.119880065
13	0x3d746b01	0.05967236
14	0xbf1f497f	-0.6222152
15	0x3f0c6c0f	0.54852384
16	0xbe7dd8ba	-0.24789706
17	0xbf80d12f	-1.0063838
18	0xbd1bb744	-0.038016573
19	0xbe2dba71	-0.16965653
20	0xbd1d7d13	-0.03844936
21	0x3ec2c38e	0.3803982
22	0xbe89eb38	-0.2693727
23	0xbe974c05	-0.29550186
24	0x3f0ee421	0.5581685
25	0x3ec8d77c	0.39226902
26	0xbe5065c1	-0.20351316
27	0x3f5d4dd8	0.86446905
28	0xbf1c71cd	-0.61111146
29	0xbefb304d	-0.49060288
30	0xbf05694e	-0.5211381
31	0x3ea28a49	0.31746128
32	0x3ec4ae2f	0.38414142
33	0x3e831451	0.25601438
34	0xbed59222	-0.41713053
35	0x3e4b04df	0.19826077
36	0xbd0da3cc	-0.034580037
37	0xbd36f4d0	-0.044667065
38	0xbde564c9	-0.11200864
39	0x3f6c7d2d	0.92378503
40	0xbf7fb684	-0.9988787
41	0x3f11c247	0.5693707
42	0x3e7dc9d9	0.2478403
43	0xbea30273	-0.31837806
44	0xbe804505	-0.25052658
45	0xbee9d237	-0.45668194
46	0xbf019fda	-0.5063454
47	0xbeeffc02	-0.46871954
48	0x3d88355a	0.06650801
49	0x3eb29de4	0.34886086
50	0xbdd74e2e	-0.105129585
51	0xbe871d71	-0.2638965
52	0x3f8eadc8	1.1146784
53	0x3e74e8b6	0.23916897
54	0xbf21bb13	-0.6317608
55	0x3f7ad554	0.9798176
56	0x3f05de53	0.52292365
57	0x3eac554d	0.3365883
58	0xbf48a6fa	-0.78379786
59	0xbfe9639c	-1.8233523
60	0x3c0e6882	0.008691909
61	0x3dc3d0b8	0.09561294
62	0xbd8ddeed	-0.06927285
63	0x3e3861ac	0.18006009
64	0x3e646942	0.22305778
65	0xbf00674c	-0.5015762
66	0xbeb4bddb	-0.35301098
67	0xbf28b44c	-0.6590011
68	0x3e72ddab	0.23717372
69	0x3db498bc	0.08818194
70	0x3f4f74c1	0.8103753
71	0xbdc11492	-0.094277516
72	0x3f1f58c0	0.62244797
73	0x3eb41afe	0.35176843
74	0xbe43cc96	-0.19121012
75	0xbd5d0c1d	-0.05396663
76	0xbd1badbb	-0.03800748
77	0xbec60efb	-0.38683304
78	0x3eb5da78	0.3551824
79	0xbe14b5c7	-0.14522468
80	0xbe576975	-0.21036322
81	0xbf1f6bfa	-0.62274134
82	0x3f99165b	1.1959947
83	0xbd903107	-0.07040601
84	0x3e8c8e73	0.2745243
85	0xbed4b825	-0.4154674
86	0xbf6bb0bc	-0.9206655
87	0x3df4764f	0.11936628
88	0xbf0d7f49	-0.55272347
89	0x3f6d5a4b	0.927159
90	0x3d52238f	0.051303443
91	0xbe929cd0	-0.28635263
92	0x3f6fdb87	0.9369435
93	0x3e9ba42a	0.30398685
94	0xbe42b53d	-0.1901445
95	0xbe214bfc	-0.15751642
96	0xbe622064	-0.22082669
97	0xbea69611	-0.32536367
98	0xbd6c3fa3	-0.057677876
99	0xbee4f8ea	-0.44721156
100	0x3f4d193d	0.80116636
101	0x3f01a8a6	0.5064796
102	0xbed529eb	-0.41633543
103	0xbf173b17	-0.5907454
104	0x3eb18669	0.3467286
105	0xbe88af70	-0.26696348
106	0xbf004565	-0.5010589
107	0xbe42680a	-0.18985
108	0x3f078620	0.52939034
109	0xbeb67138	-0.35633254
110	0x3e214d26	0.15752086
111	0x3f80732d	1.0035149
112	0xbf0b5f2d	-0.544421
113	0xbf0ed303	-0.5579073
114	0x3e74a4d7	0.23891006
115	0xbe9c2161	-0.30494216
116	0xbe464c77	-0.19365107
117	0x3f6d2a72	0.9264289
118	0x3ee8b436	0.4544999
119	0x3dd3917b	0.103304826
120	0x3e8a9aa9	0.2707112
121	0xbf02b9db	-0.5106484
122	0xbdfc9e6b	-0.12334903
123	0xbc9353d0	-0.0179843
124	0xbee30bd6	-0.44344968
125	0xbf2187f2	-0.6309806
126	0xbef63e22	-0.4809428
127	0x3ed1cc27	0.40976068
128	0x3d0a5653	0.03377373
129	0xbf0067db	-0.5015847
130	0x3f85fa65	1.0467039
131	0xbf07cee9	-0.53050095
132	0x3d42a40f	0.04751974
133	0x3c16c84a	0.009203026
134	0xbdc383ac	-0.09546599
135	0x3e9349ea	0.2876733
136	0xbedf6aa3	-0.43636045
137	0x3e961da5	0.29319492
138	0xbeb47f19	-0.35253218
139	0x3f039ab2	0.5140792
140	0xbebf34ca	-0.37344962
141	0x3e0bb0ef	0.13641714
142	0xbe8627b9	-0.2620218
143	0x3e331a20	0.17490435
144	0xbd5cd3a0	-0.05391276
145	0xbe4f4b6d	-0.20243616
146	0xbf62b957	-0.88564056
147	0x3d42ccd0	0.047558606
148	0x3ee5e091	0.44897893
149	0x3f86930d	1.0513626
150	0xbd63708d	-0.05552726
151	0xbe3e83e2	-0.18604997
152	0xbe4134e0	-0.18867826
153	0xbebf63de	-0.3738088
154	0x3c94d215	0.018166581
155	0xbd574c27	-0.05256286
156	0xbd42d8d6	-0.047570072
157	0xbd3dbe3a	-0.046323992
158	0x3e5c5bd1	0.215194
159	0x3ee0e7c8	0.43926835
160	0xbf111961	-0.5667935
161	0x3ed27aa3	0.4110919
162	0xbf3432a4	-0.7038977
163	0x3e21d7da	0.15804997
164	0x3edbe56a	0.42948467
165	0x3e41bdd5	0.18920071
166	0x3e2882d5	0.16456158
167	0x3c9eeac2	0.01939905
168	0x3ee0b7ca	0.4389022
169	0xbe928f71	-0.28625062
170	0xbee65ccb	-0.4499267
171	0xbf9d5d44	-1.2294087
172	0x3f88ff9c	1.0703006
173	0xbecb74bd	-0.39737502
174	0x3dcfbc7d	0.10143373
175	0x3ed2bbe9	0.4115899
176	0x3c4c70f8	0.012478106
177	0xbd0f5de6	-0.035001658
178	0xbde135c7	-0.10996585
179	0x3e234b3d	0.1594667
180	0xbfaf32be	-1.368736
181	0xbfb67059	-1.4253036
182	0xbf507d0e	-0.8144082
183	0x3e5ccc4e	0.21562311
184	0x3d272cf7	0.040814366
185	0x3f45b336	0.7722658
186	0x3ecfe81a	0.40606767
187	0x3e6c517a	0.23077956
188	0x3ecd952c	0.40152872
189	0x3e769ccb	0.2408325
190	0xbef55691	-0.47917607
191	0xbf738eb5	-0.9513963
192	0x3f00cc31	0.5031157
193	0xbeb38616	-0.35063237
194	0xbf4fad01	-0.8112336
195	0x3e950bd5	0.2911059
196	0x3f06a4b2	0.52595055
197	0x3f7a7116	0.97828805
198	0x3f10c801	0.5655518
199	0xbddd206a	-0.10797198
200	0xc01b4122	-2.4258504
201	0x3e86c2e5	0.26320568
202	0xbf310bf8	-0.6915889
203	0xbffff06b	-1.9995245
204	0x3ee4897f	0.4463615
205	0x3e570d2b	0.21001117
206	0x3dbea04c	0.09307918
207	0x3dcc1649	0.09965188
208	0xbdd046b1	-0.10169733
209	0x3db0a0ed	0.08624444
210	0x3e59cf05	0.21270378
211	0xbee2c4e3	-0.44290838
212	0x3de708df	0.11280989
213	0xbe1dca7b	-0.15409271
214	0x3e8eb43c	0.27871883
215	0x3e47e8c6	0.1952239
216	0x3ead9d12	0.33908898
217	0x3e45680e	0.19277975
218	0x3e95ace8	0.2923348
219	0x3f0edf0b	0.55809087
220	0x3e9955e5	0.29948345
221	0x3e37eff4	0.17962629
222	0xbfb88116	-1.4414394
223	0xbf29bbff	-0.66302484
224	0xbf4061a1	-0.7514897
225	0x3f36e027	0.7143578
226	0x3fb34ee8	1.4008455
227	0xbf466aa3	-0.77506465
228	0xbe9bc92f	-0.30426928
229	0xbe8a7cfb	-0.27048478
230	0x3e983aca	0.29732352
231	0xbf1bee68	-0.60910654
232	0xbf625f7b	-0.8842694
233	0x3ecc1092	0.39856392
234	0xbd92136a	-0.07132609
235	0x3f5010ac	0.8127544
236	0xbf422c64	-0.75848985
237	0xbda40b67	-0.08009987
238	0xbedc4d48	-0.4302771
239	0x3f5b8f79	0.85765797
240	0x3e8a63ea	0.27029353
241	0xbe2a050c	-0.16603488
242	0xbeefcf60	-0.46837902
243	0x3f381f6a	0.71922934
244	0x3d62f04b	0.055404942
245	0xbe89be97	-0.2690322
246	0x3f3d91d9	0.7405067
247	0xbf1689ed	-0.5880421
248	0xbf229a53	-0.6351673
249	0xbe8efbbd	-0.27926436
250	0xbef7f57f	-0.48429486
251	0xbe5089f5	-0.20365126
252	0x3e965234	0.2935959
253	0xbdf6c1ff	-0.120487206
254	0xbedfddea	-0.43723994
255	0x3f556b61	0.8336697

module.dncnn.2.weight f4 [64, 64, 3, 3]
0	0x3b3e9b15	0.0029084135
1	0x3dea947d	0.11454103
2	0xbd053f8a	-0.0325313
3	0xbb429238	-0.0029689204
4	0xbb9b1f60	-0.004733965
5	0x3b536438	0.003225578
6	0xbe660338	-0.22462165
7	0xbe89b51c	-0.26895988
8	0xbda32cc9	-0.079675265
9	0x3eb65e5a	0.3561886
10	0x3e9cbd7b	0.30613312
11	0x3e94486b	0.289615
12	0x3e15645b	0.14589064
13	0xbd8b8a79	-0.06813521
14	0xbe135018	-0.14386022
15	0x3e023825	0.1271673
16	0xbe6cfb4a	-0.23142734
17	0xbe0af305	-0.13569267
18	0x3cef818d	0.02923658
19	0xbdaf5666	-0.08561401
20	0xbe16c31e	-0.14722869
21	0xbc69e9c3	-0.014276925
22	0xbd34c6aa	-0.044134773
23	0xbbdb1a58	-0.00668649
24	0xbd05eef0	-0.03269857
25	0xbd3b09f1	-0.045663778
26	0x3dc5a943	0.09651425
27	0x3c997378	0.018731818
28	0xbccbb4f2	-0.024866555
29	0x3bf298a8	0.007403452
30	0x3d99f1c9	0.0751682
31	0x3dd07165	0.10177878
32	0xbd800338	-0.06250614
33	0xbc8956f4	-0.016765095
34	0xbd8e9481	-0.069619186
35	0x3de9eb2b	0.11421808
36	0x3da0c150	0.078493714
37	0xbd4d29ca	-0.05008868
38	0x3da09d4a	0.078425005
39	0x3d8ca376	0.06867115
40	0xbde10ac8	-0.109883845
41	0x3e196267	0.14978944
42	0x3e388c45	0.18022259
43	0xbd5e75ba	-0.05431149
44	0xbc91663a	-0.01774894
45	0x3b462e1a	0.003023988
46	0x3dbea881	0.09309483
47	0x3d8d5dbb	0.06902643
48	0xbbb5860d	-0.0055396617
49	0xbdcc920e	-0.09988795
50	0x3ca18974	0.019718863
51	0x3db26926	0.08711462
52	0xbda3382d	-0.07969699
53	0x3cddd0ae	0.027077045
54	0x3cb9d637	0.022685153
55	0xbeb71eb7	-0.3576562
56	0xbe3a9516	-0.18220934
57	0xbcb8f058	-0.022575542
58	0xbea61802	-0.32440192
59	0xbddd8a52	-0.10817398
60	0x3e2240af	0.15844987
61	0x3c8697cf	0.01642981
62	0x3acbd972	0.0015552475
63	0x3e0702b8	0.13184631
64	0xbde85e88	-0.113461554
65	0x3dd97962	0.10618855
66	0x3d8c11e8	0.06839353
67	0x3da53aac	0.080678314
68	0x3e77cf32	0.24200132
69	0x3dc51c5f	0.09624552
70	0x3dba8097	0.09106558
71	0xbd834ff7	-0.064117365
72	0xbc412747	-0.01178915
73	0x3d8f2cbf	0.069909565
74	0x3c704c86	0.014666682
75	0xbde6db78	-0.11272329
76	0xbd408ef6	-0.04701134
77	0xbdb6a74d	-0.08918629
78	0x3d0081a4	0.031373635
79	0xbd8d9c26	-0.069145486
80	0xbd959e44	-0.073055774
81	0xbc413682	-0.011792781
82	0x3e108dfd	0.14116664
83	0xbd587c8d	-0.052853156
84	0x3cc911b8	0.024544582
85	0xbdcccff5	-0.10000602
86	0xbc1cc752	-0.009569006
87	0x3c4955f5	0.01228856
88	0xbd8af329	-0.0678466
89	0xbd70cb5e	-0.058787696
90	0x3cb5bbf4	0.02218435
91	0x3dd0dba8	0.10198146
92	0xbe002754	-0.12515002
93	0x3c299033	0.010349321
94	0xbc98e571	-0.018664094
95	0xbe6d4227	-0.23169766
96	0x3e1f76e2	0.15572694
97	0x3d7feb64	0.062480345
98	0xbe1de377	-0.15418802
99	0xbd215588	-0.03938821
100	0xbdec41e0	-0.11536002
101	0x3e084d5b	0.13310759
102	0x3e342d90	0.17595506
103	0xbe3d53c9	-0.18488993
104	0xbdd0ce17	-0.101955585
105	0x3dc25403	0.0948868
106	0x3cc42398	0.023942754
107	0xbe488f1e	-0.19585845
108	0x3e7e7150	0.24847913
109	0x3dcf1593	0.10111537
110	0x3e034068	0.12817538
111	0xbbf62633	-0.007511878
112	0xbdac8ffd	-0.08425901
113	0xbdd15a3f	-0.10222291
114	0x3d802f2f	0.062589996
115	0x3e189cbc	0.1490354
116	0x3e0e7beb	0.13914458
117	0x3cab380b	0.020900747
118	0x3e5e3e25	0.21703394
119	0x3ed4d805	0.4157106
120	0xbe47c03d	-0.19506927
121	0x3bf38ac2	0.0074323127
122	0x3de04e44	0.10952428
123	0xbd59339d	-0.053027738
124	0xbc0a0297	-0.008423469
125	0x3cde5f26	0.02714498
126	0xbe5c1ed6	-0.21496138
127	0xbe19571d	-0.14974637
128	0xbe12716f	-0.14301084
129	0x3d5d9bca	0.05410365
130	0xbdf3d707	-0.119062476
131	0xbe2f6238	-0.17127311
132	0x3dc1d5ce	0.09464608
133	0x3c6ac7a0	0.014329821
134	0xbe2c8127	-0.16846143
135	0x3d2e0cc4	0.042492643
136	0xbeb724aa	-0.3577016
137	0xbed14cf9	-0.40879038
138	0xbe312f21	-0.17303135
139	0xbdd65802	-0.10466005
140	0xbf110e7e	-0.5666274
141	0xbe10d765	-0.14144666
142	0xbdf31813	-0.11869826
143	0xbe8956ed	-0.26824132
144	0x3e0d1b99	0.13780059
145	0x3b1f07f8	0.0024266224
146	0xbd483b34	-0.048884585
147	0x3b922499	0.004459929
148	0x3e1f332d	0.15546866
149	0xbe1ea3e3	-0.15492205
150	0x3e5bbca6	0.21458682
151	0xbcd9be5c	-0.026580028
152	0x3e8c2934	0.27375185
153	0x3c83028a	0.015992422
154	0xbc246f18	-0.010036252
155	0x3e64b7c8	0.22335732
156	0xbe09118f	-0.13385604
157	0x3dabfbbf	0.08397626
158	0x3e235bc5	0.15952976
159	0x3e1d7b72	0.15379122
160	0x3e6bf6e5	0.23043402
161	0x3ebadc42	0.36496168
162	0xbb0c89d5	-0.002144446
163	0xbdbb61a2	-0.09149481
164	0xbd0c771d	-0.034293283
165	0x3ce0c469	0.027437406
166	0x3dfbf56e	0.123026714
167	0x3de98371	0.114020236
168	0xbe7958e0	-0.2435031
169	0x3c540c7b	0.012942429
170	0xbdca9498	-0.09891623
171	0x3e41de96	0.18932566
172	0xbe27398b	-0.16330545
173	0xbe8e86f0	-0.27837324
174	0x3cc75b0e	0.02433541
175	0xbe053c3d	-0.1301126
176	0xbe226f2d	-0.15862723
177	0x3d672b84	0.056437984
178	0xbdc829dc	-0.09773609
179	0xbdef1a86	-0.11674981
180	0xbeadcdef	-0.33946177
181	0xbe927281	-0.28602985
182	0xbeac371b	-0.33635792
183	0xbebdd1e0	-0.37074184
184	0x3cb0c362	0.02157754
185	0x3d435906	0.04769232
186	0xbe69a978	-0.22818553
187	0x3c02360f	0.007947459
188	0x3d61a1ce	0.05508595
189	0xbd84ad1c	-0.064783305
190	0xbd0be629	-0.034155045
191	0x3e390411	0.18067957
192	0x3d993837	0.07481425
193	0x3cf9ce47	0.030493869
194	0x3e024769	0.12722553
195	0x3be7288e	0.007054395
196	0x3e46198b	0.19345681
197	0x3e36c20a	0.17847458
198	0xbdd78b23	-0.10524585
199	0xbf104af8	-0.56364393
200	0xbea71b30	-0.3263793
201	0xbe0a33a0	-0.13496256
202	0xbf46deef	-0.7768392
203	0xbee9dfc6	-0.45678538
204	0x3dd28386	0.10278992
205	0xbe256355	-0.16151173
206	0x3dcaa7ec	0.0989531
207	0xbd5a3902	-0.053277023
208	0x3d18bae8	0.037287623
209	0xbdf514a1	-0.11966825
210	0x3d8fc73d	0.070204236
211	0xbde11631	-0.10990561
212	0x3e0453fb	0.12922661
213	0x3ca71204	0.020394333
214	0x3cf8ac0f	0.030355481
215	0x3db02fa9	0.086028405
216	0xbec7315a	-0.3890484
217	0xbd83589a	-0.06413384
218	0x3f0cf9c3	0.55068606
219	0xbd8b9c27	-0.06816893
220	0xbce02885	-0.027363071
221	0x3dfb0697	0.12257116
222	0xbe7a1786	-0.24423036
223	0xbd0d8e4b	-0.03455953
224	0xbbb8a0eb	-0.0056344173
225	0xbdd9276e	-0.10603224
226	0xbc89352b	-0.016748985
227	0xbe327bf3	-0.17430095
228	0xbe40e401	-0.18836977
229	0xbe570757	-0.20998894
230	0xbdd5ba63	-0.10435941
231	0xbe5275d5	-0.20552762
232	0xbcc80046	-0.024414193
233	0xbdf0c874	-0.117569834
234	0x3e013bad	0.12620421
235	0xbe9904f8	-0.29886603
236	0xbec4588a	-0.383488
237	0x3e1bbda7	0.15209065
238	0x3b893afd	0.00418794
239	0xbe8fa44e	-0.28055042
240	0x3d8b7241	0.068089016
241	0xbcd1344a	-0.025537629
242	0xbd8d8e88	-0.06911951
243	0x3e8d89b3	0.2764412
244	0x3e97daeb	0.2965921
245	0x3e9ac912	0.3023153
246	0xbda31f18	-0.07964915
247	0xbc72df71	-0.01482378
248	0xbe9f00e8	-0.3105538
249	0xbe715ba4	-0.23570114
250	0xbe703624	-0.23458153
251	0x3d541271	0.0517754
252	0x3d0c6e41	0.034284834
253	0x3d42d632	0.047567554
254	0xbd4b74a0	-0.04967177
255	0xbdc6abe7	-0.097007565

module.dncnn.3.weight f4 [64]
0	0xbd08e217	-0.03341874
1	0xbda5d277	-0.080967836
2	0x3ce0bcbb	0.027433744
3	0xbd0defcd	-0.03465252
4	0xbd896910	-0.06709492
5	0x3daae81b	0.08345052
6	0xbd517e0d	-0.051145602
7	0xbd88df2f	-0.06683194
8	0xbce6352c	-0.028101526
9	0xbcffd47e	-0.031229254
10	0xbd0a8232	-0.03381557
11	0xbcaf0825	-0.021366188
12	0x3dbad2a8	0.09122211
13	0x3da2caf5	0.07948867
14	0xbd530da0	-0.051526666
15	0xbddbaa27	-0.10725813
16	0xbd6bbcdc	-0.057553157
17	0xbd893f5d	-0.06701539
18	0x3d4a9681	0.049459938
19	0xbd1b0f93	-0.03785665
20	0xbd158581	-0.036504272
21	0x3d0c100a	0.034194984
22	0xbd9ec953	-0.07753243
23	0xbe09f2a4	-0.13471466
24	0x3d966886	0.07344155
25	0xbe7fe74c	-0.24990577
26	0xbd8aa481	-0.06769658
27	0xbd7ed323	-0.062213074
28	0x3d7e32b9	0.06206009
29	0x3e0a7522	0.13521245
30	0x3d9e453c	0.07728049
31	0x3d9ec009	0.077514715
32	0xbd30a26e	-0.043123655
33	0x3d9221d7	0.07135361
34	0xbd0ed85b	-0.0348743
35	0x3db9c360	0.09070468
36	0x3d63db47	0.05562904
37	0xbd13a9ac	-0.036050484
38	0x3e89bdcb	0.26902613
39	0x3d8f70c8	0.07003933
40	0xbda2bf4d	-0.07946644
41	0x3d087297	0.033312406
42	0x3d583b37	0.052790847
43	0xbd971176	-0.07376377
44	0x3d94342e	0.07236515
45	0x3d787de1	0.060666922
46	0x3d3ee358	0.04660353
47	0xbd82f022	-0.06393458
48	0x3ce6ed2f	0.02818927
49	0x3d2abfc5	0.041686792
50	0x3cbc485d	0.022983724
51	0x3d90e3c1	0.070746906
52	0xbd94f8c9	-0.072740145
53	0xbd6aaea9	-0.057295475
54	0xbdb2e230	-0.08734548
55	0xbdede9e2	-0.11616875
56	0x3d9f7ef8	0.07787889
57	0xbd67d856	-0.0566028
58	0xbd870fe8	-0.06594831
59	0x3d3293fc	0.04359816
60	0x3d758a1c	0.059946164
61	0x3cf306b0	0.029666275
62	0xbd3404d6	-0.043949924
63	0x3e808a8d	0.25105706

module.dncnn.3.bias f4 [64]
0	0x00000000	0.0
1	0x00000000	0.0
2	0x00000000	0.0
3	0x00000000	0.0
4	0x00000000	0.0
5	0x00000000	0.0
6	0x00000000	0.0
7	0x00000000	0.0
8	0x00000000	0.0
9	0x00000000	0.0
10	0x00000000	0.0
11	0x00000000	0.0
12	0x00000000	0.0
13	0x00000000	0.0
14	0x00000000	0.0
15	0x00000000	0.0
16	0x00000000	0.0
17	0x00000000	0.0
18	0x00000000	0.0
19	0x00000000	0.0
20	0x00000000	0.0
21	0x00000000	0.0
22	0x00000000	0.0
23	0x00000000	0.0
24	0x00000000	0.0
25	0x00000000	0.0
26	0x00000000	0.0
27	0x00000000	0.0
28	0x00000000	0.0
29	0x00000000	0.0
30	0x00000000	0.0
31	0x00000000	0.0
32	0x00000000	0.0
33	0x00000000	0.0
34	0x00000000	0.0
35	0x00000000	0.0
36	0x00000000	0.0
37	0x00000000	0.0
38	0x00000000	0.0
39	0x00000000	0.0
40	0x00000000	0.0
41	0x00000000	0.0
42	0x00000000	0.0
43	0x00000000	0.0
44	0x00000000	0.0
45	0x00000000	0.0
46	0x00000000	0.0
47	0x00000000	0.0
48	0x00000000	0.0
49	0x00000000	0.0
50	0x00000000	0.0
51	0x00000000	0.0
52	0x00000000	0.0
53	0x00000000	0.0
54	0x00000000	0.0
55	0x00000000	0.0
56	0x00000000	0.0
57	0x00000000	0.0
58	0x00000000	0.0
59	0x00000000	0.0
60	0x00000000	0.0
61	0x00000000	0.0
62	0x00000000	0.0
63	0x00000000	0.0

module.dncnn.3.running_mean f4 [64]
0	0x00000000	0.0
1	0x00000000	0.0
2	0x00000000	0.0
3	0x00000000	0.0
4	0x00000000	0.0
5	0x00000000	0.0
6	0x00000000	0.0
7	0x00000000	0.0
8	0x00000000	0.0
9	0x00000000	0.0
10	0x00000000	0.0
11	0x00000000	0.0
12	0x00000000	0.0
13	0x00000000	0.0
14	0x00000000	0.0
15	0x00000000	0.0
16	0x00000000	0.0
17	0x00000000	0.0
18	0x00000000	0.0
19	0x00000000	0.0
20	0x00000000	0.0
21	0x00000000	0.0
22	0x00000000	0.0
23	0x00000000	0.0
24	0x00000000	0.0
25	0x00000000	0.0
26	0x00000000	0.0
27	0x00000000	0.0
28	0x00000000	0.0
29	0x00000000	0.0
30	0x00000000	0.0
31	0x00000000	0.0
32	0x00000000	0.0
33	0x00000000	0.0
34	0x00000000	0.0
35	0x00000000	0.0
36	0x00000000	0.0
37	0x00000000	0.0
38	0x00000000	0.0
39	0x00000000	0.0
40	0x00000000	0.0
41	0x00000000	0.0
42	0x00000000	0.0
43	0x00000000	0.0
44	0x00000000	0.0
45	0x00000000	0.0
46	0x00000000	0.0
47	0x00000000	0.0
48	0x00000000	0.0
49	0x00000000	0.0
50	0x00000000	0.0
51	0x00000000	0.0
52	0x00000000	0.0
53	0x00000000	0.0
54	0x00000000	0.0
55	0x00000000	0.0
56	0x00000000	0.0
57	0x00000000	0.0
58	0x00000000	0.0
59	0x00000000	0.0
60	0x00000000	0.0
61	0x00000000	0.0
62	0x00000000	0.0
63	0x00000000	0.0

module.dncnn.3.running_var f4 [64]
0	0x3e946045	0.28979698
1	0x3f36d395	0.714166
2	0x3f256558	0.64607763
3	0x3f61cd6e	0.88204086
4	0x3f372e1a	0.7155472
5	0x3ea03d94	0.3129698
6	0x3f373bae	0.7157544
7	0x3e2196da	0.15780202
8	0x3e0dc75a	0.13845578
9	0x3dfa274b	0.12214526
10	0x3f5061e7	0.8139939
11	0x3e9efeff	0.31053922
12	0x3ecba079	0.39770868
13	0x3f261d9a	0.6488892
14	0x3ec3e3f6	0.38259858
15	0x3f2205e9	0.6329027
16	0x3e8a353b	0.26993737
17	0x3f1f9047	0.62329525
18	0x3f66fb15	0.9022687
19	0x3ebb8158	0.3662212
20	0x3e92771d	0.286065
21	0x3e18704a	0.14886585
22	0x3ed9e32a	0.42556125
23	0x400d3e4c	2.2069273
24	0x3f1e6009	0.6186529
25	0x4001c67f	2.0277402
26	0x3e9cf3b7	0.3065469
27	0x3f2e47fd	0.68078595
28	0x3e59ad9f	0.21257637
29	0x3eb813b6	0.35952538
30	0x3edaa425	0.42703357
31	0x3eb8f438	0.36123824
32	0x3eba7514	0.3641745
33	0x3e13d787	0.14437686
34	0x3ebab333	0.36464843
35	0x3ed6217f	0.4182243
36	0x3f26d7bb	0.6517293
37	0x3f7ab497	0.9793181
38	0x4082c228	4.0862007
39	0x3f229258	0.6350455
40	0x3f140aa0	0.5782871
41	0x3e1266c2	0.14297011
42	0x3eaf895c	0.34284484
43	0x3ea490c2	0.3214169
44	0x3e63820a	0.22217575
45	0x3f127258	0.57205725
46	0x3f4c37b7	0.79772514
47	0x3e7654eb	0.24055831
48	0x3e19ad7e	0.15007588
49	0x3ee5fd28	0.44919705
50	0x3ecc39e7	0.39887926
51	0x3ed804c6	0.42191142
52	0x3f2420dd	0.64112645
53	0x3eb5f016	0.35534734
54	0x3f4a2991	0.78969675
55	0x3efe59d3	0.49677905
56	0x3f5e78a3	0.8690283
57	0x3f3f415d	0.7470911
58	0x3e8c077f	0.2734947
59	0x3e6d3231	0.23163678
60	0x3ecf70c0	0.4051571
61	0x3eafa493	0.34305248
62	0x3f2f90f6	0.6858057
63	0x3fe238d6	1.7673595

module.dncnn.5.weight f4 [1, 64, 3, 3]
0	0x3d5f35eb	0.05449478
1	0x3d148ba8	0.036266
2	0x3c954c39	0.018224822
3	0xbd8ce600	-0.068798065
4	0xbc7ad7ae	-0.015310211
5	0x3d97019b	0.07373353
6	0xbdf5bbb4	-0.11998692
7	0xbbe5f283	-0.007017435
8	0x3cc9a364	0.024614044
9	0x3cba60d1	0.022751244
10	0xbb8852aa	-0.004160245
11	0xbdbffa43	-0.093739055
12	0x3c230cfc	0.009951826
13	0x3c8c3831	0.017116638
14	0xbdcb07dd	-0.09913609
15	0x3dc62478	0.096749246
16	0xb9625263	-0.00021583731
17	0xbe18a876	-0.14908013
18	0x3e2282ae	0.15870163
19	0xbdc698cb	-0.09697112
20	0x3dc9393f	0.09825372
21	0x3daebec5	0.0853248
22	0xbd9785a0	-0.07398534
23	0xbcafd97b	-0.021466007
24	0x3da4a08b	0.08038434
25	0xbd8b303e	-0.06796311
26	0xbdd470a9	-0.10373051
27	0x3e072d2b	0.13200824
28	0x3a2fe456	0.0006709745
29	0x3c5faa9b	0.013651515
30	0xbbb3a2e8	-0.0054820664
31	0x3cf95a17	0.030438466
32	0xbd4d11d3	-0.050065827
33	0x3d112125	0.035432
34	0xbe4e1d07	-0.2012826
35	0x3d9c9e0f	0.07647335
36	0xbd7602a6	-0.06006112
37	0xbd437ae5	-0.047724623
38	0xbe0a1614	-0.13484985
39	0x3d0cb43c	0.034351572
40	0x3b406030	0.0029354207
41	0xbd558d25	-0.05213656
42	0x3e37d59a	0.17952576
43	0x3d58bc99	0.052914236
44	0x3d9df459	0.07712621
45	0xbe1d1c13	-0.1534274
46	0x3c6450f7	0.013935319
47	0x3dc503e6	0.09619884
48	0xbd71b2ed	-0.059008528
49	0x3d3e0676	0.04639288
50	0x3d2e91ff	0.0426197
51	0xbce876d4	-0.028376974
52	0x3ca990bb	0.020698896
53	0x3c3b2be0	0.011424035
54	0xbc96953f	-0.018381713
55	0xbd8ca629	-0.0686763
56	0xbd242acb	-0.040079873
57	0x3dbd7777	0.09251302
58	0xbdb14309	-0.08655364
59	0xbc9d5602	-0.01920605
60	0x3dd4539d	0.103675105
61	0x3de6a14f	0.11261236
62	0x3d4e1b15	0.050318796
63	0x3dfe555d	0.124186255
64	0xbdcd1a7d	-0.10014818
65	0xbd49f7d4	-0.049308613
66	0x3c82bb0d	0.015958333
67	0x3d58e31d	0.052950967
68	0xbc9b96f8	-0.018992886
69	0xbda67ef4	-0.08129683
70	0x3d80c66d	0.06287847
71	0x3ca460ad	0.02006563
72	0xb85ce258	-5.2662886e-05
73	0x3cc3f22f	0.023919193
74	0x3da91c36	0.08257334
75	0xbd11601d	-0.03549205
76	0xbcaabc49	-0.020841734
77	0xbcca3dc0	-0.024687648
78	0xbe112bda	-0.14176884
79	0xbd3dcc81	-0.04633761
80	0xbcae99b1	-0.02131352
81	0x3bd0cd9c	0.006372167
82	0xbca6dcdd	-0.020368988
83	0xbdd3668b	-0.10322293
84	0x3d022f35	0.0317833
85	0x3c86fedb	0.016478946
86	0xbda03d39	-0.07824177
87	0x3d877b5c	0.06615326
88	0x3d5a4765	0.053290743
89	0x3b3129f9	0.0027033074
90	0x3cda7f97	0.026672168
91	0x3db0809b	0.086182795
92	0xbdbc029a	-0.09180184
93	0x3dac94b9	0.08426804
94	0xbd279df5	-0.040922124
95	0xbd4f26e9	-0.050574217
96	0xbdc17372	-0.094458476
97	0x3d70afee	0.05876153
98	0xbd4820a0	-0.04885924
99	0xbd5854e3	-0.05281533
100	0xbdb889e1	-0.09010673
101	0xbd648599	-0.05579147
102	0xbd02ad0d	-0.031903315
103	0x3d4ce970	0.05002731
104	0xbcb24964	-0.021763511
105	0x3cf0c274	0.029389597
106	0x3d870808	0.06593329
107	0x3d2e5eff	0.042571064
108	0x3d138d1f	0.036023255
109	0xbdce66db	-0.10078212
110	0xbd072e8b	-0.03300337
111	0xbdff7680	-0.12473774
112	0x3d78e04a	0.060760774
113	0x3db6b014	0.08920303
114	0x3db124fc	0.08649632
115	0x3d0465a0	0.03232348
116	0xbd2eded2	-0.042692967
117	0xbe23234d	-0.15931435
118	0xbd32c7aa	-0.043647446
119	0x3c040b1d	0.00805929
120	0x3c1864b0	0.0093013495
121	0x3c38ad49	0.011271783
122	0x3cd61a01	0.026135447
123	0xbba433bd	-0.0050110505
124	0x3c653641	0.013989986
125	0x3e0b1c42	0.13584998
126	0x3d7037f1	0.0586471
127	0x3cb4815f	0.022034345
128	0x3bfa1c08	0.007632736
129	0xbc486b95	-0.012232681
130	0x3b4e98fd	0.0031524294
131	0x3d51ec9e	0.051251046
132	0xbdb7e613	-0.0897943
133	0xbe048b97	-0.12943874
134	0xbe19897f	-0.14993857
135	0xbd54d7f2	-0.051963754
136	0x3da11412	0.07865156
137	0x3dc553dd	0.09635136
138	0xbea6a45b	-0.32547268
139	0xbce1d1dc	-0.027565889
140	0x3d133fdd	0.035949577
141	0xbe5535c0	-0.20821285
142	0x3e92fa1d	0.28706446
143	0x3c639c6b	0.013892273
144	0x3cb0e94a	0.021595616
145	0x3dbb3a36	0.09141962
146	0x3e1d2269	0.15345158
147	0xbc492470	-0.012276754
148	0x3cb99097	0.022651954
149	0x3d8be335	0.06830446
150	0xbe2ee484	-0.1707936
151	0xbdd4af22	-0.103849664
152	0xbd5a9759	-0.053366993
153	0xbd84dc6c	-0.06487355
154	0x3dfc5029	0.12319977
155	0x3e2154b7	0.15754972
156	0xbceee208	-0.029160514
157	0xbda4a503	-0.08039286
158	0x3b2be7f1	0.0026230777
159	0xbdebedc2	-0.11519958
160	0xbcba7f31	-0.022765728
161	0x3d27b1c4	0.040941015
162	0x3d33476e	0.043769293
163	0x3d3dd9d4	0.046350315
164	0x3c16bfe1	0.009201021
165	0x3d9a0bdc	0.07521793
166	0xbe0e5634	-0.13900071
167	0x3c083a54	0.008314688
168	0x3d9184f0	0.07105434
169	0xbdbac28c	-0.09119138
170	0x3d362fe0	0.04447925
171	0xbd460957	-0.04834875
172	0xbda562f9	-0.08075518
173	0xbdb88b2b	-0.09010919
174	0x3ab52e26	0.0013822957
175	0x3d51954a	0.051167764
176	0x3d4ae68c	0.049536273
177	0x3a50486f	0.0007945364
178	0xbc837c26	-0.01605041
179	0x3da656c9	0.08122022
180	0xbc13cd1e	-0.009021072
181	0xbcbbe137	-0.02293454
182	0x3c2fcb91	0.010729686
183	0xbdcc2f7d	-0.09969995
184	0xbd9eca90	-0.077534795
185	0x3ba973e2	0.005171285
186	0x3cb18f82	0.021674875
187	0xbcd81609	-0.026377695
188	0x3ba564c4	0.0050474126
189	0x3c90e027	0.01768501
190	0x3ce7b384	0.028283842
191	0x3d5dca5e	0.05414807
192	0x3cd32ff4	0.025779702
193	0x3d22be75	0.039732415
194	0x3cc5fce8	0.024168447
195	0x3d9aae2e	0.075527534
196	0x3d9060cc	0.070497125
197	0x3d674fd6	0.05647262
198	0xbbfa48bf	-0.0076380665
199	0x3c70db91	0.014700786
200	0x3da68cf8	0.081323564
201	0x3d172a9b	0.036905866
202	0x3d77b8ff	0.06047916
203	0x3c5fce9e	0.013660101
204	0x3b2998bb	0.0025878388
205	0xbd015032	-0.03157062
206	0xbe3145b6	-0.17311749
207	0x3df5894b	0.11989077
208	0x3d39fc20	0.04540646
209	0x3cbcd29c	0.023049645
210	0x3e5e01db	0.21680395
211	0x3ebd2210	0.3694005
212	0xbd95f148	-0.07321411
213	0xbc489353	-0.012242156
214	0x3d54feee	0.052000932
215	0x3c32bbde	0.010909049
216	0x3e395752	0.18099716
217	0x3d17c4c7	0.037052896
218	0xbddf00c3	-0.10888817
219	0x3d84f0b6	0.064912245
220	0xbbcbac79	-0.0062156287
221	0xbd692046	-0.056915544
222	0x3d5b02e2	0.053469546
223	0xbcb4c2e3	-0.022065585
224	0xbca97a83	-0.020688301
225	0xbd001f18	-0.031279653
226	0xbc3049b4	-0.01075976
227	0x3c852e63	0.01625747
228	0x3e195c7b	0.14976685
229	0x3e7271b8	0.23676193
230	0x3d4ffc37	0.05077764
231	0x3d487f28	0.04894939
232	0xbefa2bac	-0.48861444
233	0xbce92b39	-0.028462993
234	0x3e2e9f32	0.17052916
235	0x3e1fe2ee	0.1561391
236	0xbbe5581d	-0.0069990293
237	0xbcfc08ed	-0.030765975
238	0xbd4c129b	-0.04982243
239	0xbce7e530	-0.028307527
240	0xbdbf512f	-0.093416564
241	0xbd52bbd3	-0.051448654
242	0xbcbbf5d4	-0.022944368
243	0xbd86e45a	-0.06586523
244	0xbd8d8513	-0.069101475
245	0x3d388048	0.045044214
246	0xbdaaff9c	-0.08349535
247	0x3c0caea9	0.008586564
248	0x3c290120	0.01031521
249	0x3d0023e6	0.031284235
250	0xbbe3ce55	-0.006952087
251	0x3e0e9837	0.13925253
252	0xbdd689ac	-0.104754776
253	0xbd50abb2	-0.05094499
254	0x3c91b41d	0.01778608
255	0xbdb616ef	-0.08891093
