single_net.pth (torch, 1706 bytes, 2 tensors)

module.dncnn.0.weight f4 [1, 1, 3, 3]
0	0xbd2d89df	-0.042367812
1	0xbe2ee43c	-0.17079252
2	0xbd245018	-0.040115446
3	0x3d8f3d06	0.06994061
4	0x3f00683a	0.5015904
5	0x3d915873	0.070969485
6	0x3c7ebf7c	0.015548583
7	0x3e0f8ed0	0.14019322
8	0x3c9060cd	0.017624283

module.dncnn.2.weight f4 [1, 1, 3, 3]
0	0xbdbe49a3	-0.09291389
1	0x3e13339d	0.14375158
2	0xbdcdc525	-0.10047368
3	0xbed92569	-0.42411354
4	0x3fa4ae20	1.2865639
5	0xbed8248c	-0.42215383
6	0x3df0b916	0.11754052
7	0xbf247b2e	-0.6425046
8	0x3deee752	0.116652146
